…
   "outputs": [],
   "source": [
    "icl_learner = InContextLearnerV2(\n",
    "    network=network,\n",
    "    loss_fn=loss_fn,\n",
    "    val_sets=[],\n",
    "    spurious_setting='sum',\n",
    "    dataset_name='inaturalist2017',\n",
    "    optimizer_conf = None,\n",
    "    scheduler_conf = None,\n",
    ")"
   ]
  },
  {
   "cell_type": "code",
   "execution_count": 13,
   "id": "82ed7f5e-cd87-4b5a-a4d2-69ecd4a378e8",
   "metadata": {},
   "outputs": [
    {
     "data": {
      "text/plain": [
       "InContextLearnerV2(\n",
       "  (_network): GPTJModelV2(\n",
       "    (wte): Embedding(50400, 768)\n",
       "    (drop): Dropout(p=0.0, inplace=False)\n",
       "    (h): ModuleList(\n",
       "      (0-5): 6 x GPTJBlock(\n",
       "        (ln_1): LayerNorm((768,), eps=1e-05, elementwise_affine=True)\n",
       "        (attn): GPTJAttention(\n",
       "          (attn_dropout): Dropout(p=0.0, inplace=False)\n",
       "          (resid_dropout): Dropout(p=0.0, inplace=False)\n",
       "          (k_proj): Linear(in_features=768, out_features=768, bias=False)\n",
       "          (v_proj): Linear(in_features=768, out_features=768, bias=False)\n",
       "          (q_proj): Linear(in_features=768, out_features=768, bias=False)\n",
       "          (out_proj): Linear(in_features=768, out_features=768, bias=False)\n",
       "        )\n",
       "        (mlp): GPTJMLP(\n",
       "          (fc_in): Linear(in_features=768, out_features=3072, bias=True)\n",
       "          (fc_out): Linear(in_features=3072, out_features=768, bias=True)\n",
       "          (act): NewGELUActivation()\n",
       "          (dropout): Dropout(p=0.0, inplace=False)\n",
       "        )\n",
       "      )\n",
       "    )\n",
       "    (ln_f): LayerNorm((768,), eps=1e-05, elementwise_affine=True)\n",
       "  )\n",
       "  (_fc): Linear(in_features=768, out_features=1, bias=True)\n",
       "  (_loss_fn): ContextBNEWithLogits(\n",
       "    (_bne): BCEWithLogitsLoss()\n",
       "  )\n",
       "  (train_accuracy): BinaryAccuracy()\n",
       "  (train_accuracy_minority): MinorityMajorityAccuracy()\n",
       "  (train_accuracy_majority): MinorityMajorityAccuracy()\n",
       "  (val_accuracy): BinaryAccuracy()\n",
       "  (val_accuracy_minority): MinorityMajorityAccuracy()\n",
…
